model.pth (torch, 104823 bytes, 7 tensors)

layer1.weight f4 [128, 64]
-0.097565494 -0.01922197 0.10798442 -0.10387355 -0.11196837 -0.003254006 0.051910102 -0.1020113
0.04563715 0.011681225 0.017340057 -0.073420055 0.103741795 0.079583034 -0.023274159 0.082796395
-0.0959359 0.04925565 0.03772751 -0.10754557 -0.08008736 0.010573055 -0.024024945 -0.0019354171
0.061820295 0.05175645 -0.0967091 -0.025418073 -0.027035085 -0.0336543 0.04673644 -0.10459634
-0.07394074 0.06868467 0.11046386 -0.05345023 -0.051265128 -0.013295022 0.09531996 0.11352931
-0.016430944 -0.051678404 -0.11993244 -0.033503976 0.044685777 0.015893057 0.11745381 -0.086199716
-0.08780836 -0.10605942 -0.004310678 0.064099185 0.09534791 -0.04355675 0.008448683 0.076633826
-0.050011873 -0.058660045 0.013487369 -0.09079528 0.006364003 0.032382786 -0.12227617 0.10112009
-0.10499327 0.065249585 -0.03032934 -0.026385147 0.008158563 0.07127053 -0.09503611 -0.07562582
0.040101934 0.022910764 -0.068024434 0.0024380863 -0.102311596 -0.062345043 -0.08465571 0.09461976
-0.033559 -0.11543706 0.044861894 -0.07751755 -0.06464243 0.06628048 0.018892387 -0.08874919
0.09007509 -0.005042261 0.028709203 0.04203409 -0.071968324 -0.09504454 0.02259685 -0.041937534
0.046359137 0.02156879 -0.11200008 0.044231657 0.004560101 -0.12294612 0.101106405 -0.028970942
0.09452511 -0.014679015 -0.12782082 0.058283515 -0.098249786 0.0023348331 0.07925014 0.046621323
0.028479418 0.060506333 -0.056524877 0.10460262 0.03617957 0.034039553 0.052405592 0.0136083895
0.093556575 0.11257674 -0.061567828 0.11910424 -0.03269212 0.06477183 -0.10401687 -0.03581181
-0.02720745 -0.008418083 0.1235224 0.09060049 -0.12138237 -0.10699524 -0.0215749 -0.110332936
-0.054242462 0.01055336 0.022735476 -0.047873124 -0.08162877 -0.1186215 -0.082956955 -0.053108677
0.008148581 -0.08537124 0.07334152 0.11262049 -0.092687964 0.02588737 -0.09549691 0.038655743
-0.04955198 0.11445594 -0.007068008 -0.0046603084 0.070529655 0.09687762 0.105069816 0.019047216
-0.05237277 -0.028746843 0.093979016 0.004251167 0.0208399 0.007415086 -0.05044426 0.06761454
0.023076013 0.07536475 0.08062987 -0.047365904 0.04312907 0.02972962 0.06596963 -0.03282842
-0.020379484 -0.02914007 0.08051893 0.11758228 0.029161394 0.07435168 0.061047763 0.09073682
0.06347524 -0.033762828 0.12158121 -0.122217104 -0.05983241 -0.039371952 0.109774664 -0.09572172
-0.02750282 -0.031145066 0.103486344 0.012270838 0.013648361 -0.122064024 -0.028681934 -0.103811055
-0.08676994 -0.030271113 -0.099655285 0.039516076 -0.015044153 -0.034494966 -0.065813735 -0.022334725
0.044047266 -0.016845912 0.012388617 0.07335621 -0.011749759 -0.075603485 0.02825962 0.046038926
0.12453365 0.0750764 -0.09637244 0.049006104 0.028018072 -0.0035865307 -0.001574412 -0.11991158
0.09824596 0.008015528 0.04668422 0.1082297 -0.01095739 -0.11965707 -0.0020656586 -0.00036114454
0.07362983 0.041172683 0.038394183 0.0028494 -0.0057433844 -0.12024976 0.016126946 0.03172034
0.003366515 -0.043081343 -0.035958916 0.10894872 0.05473116 -0.084564865 -0.11836544 -0.04425569
-0.0020821989 -0.07412633 0.015380979 -0.06033668 -0.10295743 0.03431505 -0.029555678 -0.1093331
00000000: 6bd0 c7bd 6577 9dbc f026 dd3d a8bb d4bd
00000010: ac4f e5bd 2941 55bb b09f 543d 4deb d0bd
00000020: 05ee 3a3d 9c62 3f3c bc0c 8e3c 415d 96bd
00000030: 9476 d43d 6efc a23d 73a9 bebc 2891 a93d
00000040: 0b7a c4bd 4bc0 493d 2988 1a3d da40 dcbd
00000050: d804 a4bd 9b3a 2d3c f6cf c4bc d2ad fdba
00000060: 4737 7d3d 92fe 533d 6c0f c6bd 9039 d0bc
00000070: af78 ddbc 17d9 09bd b66e 3f3d 9b36 d6bd
00000080: 3e6e 97bd 8caa 8c3d e03a e23d a1ee 5abd
00000090: 62fb 51bd 5dd3 59bc 1c37 c33d 0e82 e83d
000000a0: 309a 86bc bcac 53bd 249f f5bd 773b 09bd
000000b0: 6f08 373d 2832 823c a08b f03d 7a89 b0bd
000000c0: dfd4 b3bd ae35 d9bd 9740 8dbb 6f46 833d
000000d0: c445 c33d 9068 32bd 586c 0a3c 32f2 9c3d
000000e0: 40d9 4cbd 8445 70bd 20fa 5c3c e0f2 b9bd
000000f0: 2089 d03b d0a3 043d ee6b fabd 0d18 cf3d
00000100: b606 d7bd 93a1 853d 3c75 f8bc aa25 d8bc
00000110: 7eab 053c 49f6 913d 4ba2 c2bd b6e1 9abd
00000120: ed41 243d 5baf bb3c 6550 8bbd 4dc8 1f3b
00000130: be88 d1bd 845d 7fbd f95f adbd 01c8 c13d
00000140: 2975 09bd 446a ecbd 1bc1 373d 85c1 9ebd
00000150: 4063 84bd 0fbe 873d 35c4 9a3c 23c2 b5bd
00000160: 4a79 b83d 8d39 a5bb 902f eb3c f02b 2c3d
00000170: 2164 93bd b6a6 c2bd 071d b93c b1c6 2bbd
00000180: 14e3 3d3d 08b1 b03c 4c60 e5bd 412c 353d
00000190: e66c 953b 2dcb fbbd e010 cf3d 7854 edbc
000001a0: 6296 c13d 4080 70bc 76e3 02be b2ba 6e3d
000001b0: 2f37 c9bd 0004 193b e64d a23d 00f6 3e3d
000001c0: ab4d e93c 7dd5 773d a186 67bd e639 d63d
000001d0: 0731 143d 0f6d 0b3d 3fa7 563d b9f5 5e3c
000001e0: 979a bf3d a28e e63d 8c2e 7cbd ecec f33d
000001f0: 2ce8 05bd 18a7 843d cc06 d5bd 68af 12bd
00000200: 28e2 debc 00ec 09bc 50f9 fc3d c08c b93d
00000210: 5297 f8bd 5220 dbbd d8bd b0bc 3cf6 e1bd
00000220: 582d 5ebd 00e8 2c3c c03f ba3c 9c16 44bd
00000230: fc2c a7bd d4ef f2bd 56e5 a9bd 7c88 59bd
00000240: a081 053c 1ed7 aebd 1434 963d 92a5 e63d
00000250: 30d3 bdbd c011 d43c e293 c3bd 7c55 1e3d
00000260: 04f7 4abd e067 ea3d c09a e7bb 80b5 98bb
00000270: da71 903d c667 c63d d82e d73d e808 9c3c
00000280: d484 56bd 807e ebbc 1278 c03d 604d 8b3b
00000290: 70b8 aa3c 40fa f23b a49e 4ebd 7e79 8a3d
000002a0: e809 bd3c d658 9a3d 4621 a53d c002 42bd
000002b0: 1ca8 303d 888b f33c 161b 873d 1877 06bd
000002c0: e0f2 a6bc 28b7 eebc 1ce7 a43d face f03d
000002d0: e0e3 ee3c b245 983d 380d 7a3d 3ad4 b93d
000002e0: 4eff 813d e44a 0abd 92ff f83d f64c fabd
000002f0: d412 75bd 7c44 21bd 8ad1 e03d c009 c4bd
00000300: 984d e1bc f023 ffbc a6f0 d33d a00b 493c
00000310: 609d 5f3c b4fc f9bd 60f6 eabc e49a d4bd
00000320: 70b4 b1bd 20fb f7bc 1218 ccbd 9cdb 213d
00000330: c07b 76bc 984a 0dbd 5ac9 86bd 50f7 b6bc
00000340: e86a 343d 7000 8abc a0f9 4a3c c83b 963d
00000350: 1082 40bc 00d6 9abd b880 e73c 5093 3c3d
00000360: 800b ff3d a8c1 993d ea5e c5bd a0ba 483d
00000370: 2886 e53c 000c 6bbb 805c ceba 3494 f5bd
00000380: 2e35 c93d 9053 033c f437 3f3d 88a7 dd3d
00000390: a086 33bc c40e f5bd 0060 07bb 0058 bdb9
000003a0: 3ccb 963d b0a4 283d 3843 1d3d 00bd 3a3b
000003b0: 0033 bcbb 8245 f6bd a81c 843c 30ed 013d
000003c0: c0a0 5c3b 1076 30bd a849 13bd 8220 df3d
000003d0: c82d 603d 5830 adbd 9469 f2bd 7445 35bd
000003e0: 8075 08bb 8ccf 97bd 8000 7c3c 9823 77bd
000003f0: 58db d2bd f08d 0c3d c01e f2bc 08ea dfbd

layer1.bias f4 [128]
0.0545252 0.044741448 -0.07569347 -0.010377526 -0.11880034 0.039010927 0.0151045155 -0.055919677
0.07974819 -0.08961506 -8.571084e-05 0.047873355 0.010499357 0.09029993 -0.0720783 0.033031665
-0.08410159 -0.12412563 0.06497583 -0.063955426 -0.00071418285 -0.039662868 0.026218299 0.023600476
-0.085317776 -0.06346433 -0.07435125 -0.10057701 -0.10021596 0.07195845 0.10269458 -0.004300936
-0.103946716 -0.0037213117 -0.060953557 -0.08129795 0.018030696 0.0038874291 -0.008305095 0.07280656
0.053472273 0.0030808623 0.019739231 0.09306324 -0.0004392594 -0.041358396 -0.07925375 0.06187291
-0.048058063 0.025837647 0.027957236 0.05465666 0.022161147 0.00050821254 -0.016923547 0.033995684
0.059250284 -0.0021676396 -0.028375342 -0.015316367 0.059029266 0.017961051 0.054354794 0.066257924
-0.06943828 -5.9541926e-06 -0.014153644 -0.026621968 0.10009224 0.0827045 0.11771381 0.044321008
-0.11624001 -0.04556866 0.109449066 -0.10030435 0.003631153 0.06480088 -0.0992496 0.107881516
0.0034900128 0.026658624 -0.06700203 -0.03332542 -0.115350485 -0.05404213 -0.10909958 0.04045267
0.023778647 -0.111102104 -0.09573597 0.010875653 -0.10289574 0.02443191 -0.0005266647 -0.021447971
0.10695421 0.0738925 -0.028264001 0.003171543 0.03220996 -0.08932975 0.03449313 0.017378904
0.10547909 -0.011981949 0.08775515 -0.09099387 0.0035531009 -0.11868164 -0.07676044 0.07398605
-0.08424771 -0.06414001 0.062274005 -0.08420175 -0.09006712 -0.08946402 0.015251991 -0.06621376
0.015252008 0.124163 0.07044871 -0.09196538 -0.022769243 -0.08974275 -0.09971976 0.017532907
00000000: d155 5f3d cf42 373d 2e05 9bbd 8006 2abc
00000010: 984d f3bd ecc9 1f3d ee78 773c 080c 65bd
00000020: 0553 a33d 1a88 b7bd a8bf b3b8 da16 443d
00000030: 7f05 2c3c 2bef b83d ca9d 93bd 364c 073d
00000040: 743d acbd 9435 febd 0c12 853d 10fb 82bd
00000050: 0038 3bba 8875 22bd c2c7 d63c c955 c13c
00000060: 16bb aebd 96f9 81bd 7845 98bd 52fb cdbd
00000070: 063e cdbd f45e 933d 8951 d23d deee 8cbb
00000080: 04e2 d4bd 40e1 73bb 70aa 79bd 8a7f a6bd
00000090: 1cb5 933c 3dc4 7e3b 1812 08bc 9b1b 953d
000000a0: be05 5b3d 4be8 493b 2bb4 a13c f197 be3d
000000b0: 664c e6b9 6c67 29bd ca4f a2bd 736e 7d3d
000000c0: 88d8 44bd 79a9 d33c 9306 e53c a9df 5f3d
000000d0: 4b8b b53c 9139 053a 40a3 8abc 0f3f 0b3d
000000e0: 6db0 723d f50e 0ebb 6873 e8bc 80f1 7abc
000000f0: acc8 713d 0e23 933c 22a3 5e3d 3cb2 873d
00000100: a835 8ebd 20ca c7b6 b0e4 67bc 5016 dabc
00000110: 29fd cc3d fa60 a93d f013 f13d f289 353d
00000120: 3e0f eebd 34a6 3abd d526 e03d 5e6c cdbd
00000130: a3f8 6d3b 53b6 843d 6043 cbbd fcf0 dc3d
00000140: b3b8 643b 3063 da3c 5c38 89bd 3c80 08bd
00000150: e03c ecbd 485b 5dbd 9a6f dfbd b3b1 253d
00000160: 70cb c23c 8089 e3bd 3811 c4bd cb2f 323c
00000170: 00bb d2bd 6e25 c83c df0f 0aba a8b3 afbc
00000180: cf0a db3d f354 973d e889 e7bc a9d9 4f3b
00000190: 97ee 033d 84f2 b6bd ab48 0d3d 345e 8e3c
000001a0: 6c05 d83d f04f 44bc f9b8 b33d fe5a babd
000001b0: 24db 683b 5c0f f3bd 9434 9dbd 0086 973d
000001c0: 108a acbd d65b 83bd 0713 7f3d f871 acbd
000001d0: 1c75 b8bd ea38 b7bd 7de3 793c 149b 87bd
000001e0: 8fe3 793c 2c49 fe3d 6a47 903d 5858 bcbd
000001f0: 9086 babc 0ccb b7bd e039 ccbd 2ca1 8f3c

layer2.weight f4 [128, 128]
-0.03855578 0.00070383126 0.031568915 0.07962021 0.004823222 -0.03575644 0.08222895 -0.058198757
-0.048070766 -0.056841694 0.0581224 -0.07950725 -0.0688956 0.031858474 0.076373436 -0.07691649
0.0341416 0.035676315 -0.050735626 -0.020885754 0.053688984 0.028446615 -0.012061585 -0.055551242
0.013818887 -0.016151072 -0.0010401526 -0.03027739 -0.021575762 0.0059098415 -0.020621145 0.0016691416
0.05739153 0.084203966 0.08481842 0.038468122 -0.06450229 0.010606213 -0.0568946 -0.052051496
-0.06635053 0.017411094 0.06523035 -0.055426676 -0.07620959 -0.047063448 0.056422133 0.0033570807
0.074140005 -0.022020526 -0.07375384 0.035933748 -0.05595816 0.07645442 0.0871469 0.062159047
0.0039713816 -0.027413279 -0.013679202 -0.036066607 -0.07980485 -0.030501263 0.014941257 0.010368409
0.07947173 0.044484932 0.0025724645 -0.019239256 0.026118739 -0.064884126 -0.08330097 0.04171855
0.039585426 -0.07740742 0.054189034 -0.0042700446 -0.05712196 0.0067113694 -0.0681142 -0.07022121
0.030665815 -0.019024814 0.05899565 0.057149787 0.07703586 0.053959597 -0.014934852 -0.015456366
-0.04905732 -0.06413779 0.061432235 -0.03401217 0.041307293 -0.048373908 0.0010297318 0.07376267
-0.08684094 -0.013491817 0.0457547 0.032728016 0.03861528 -0.02563955 0.017246502 0.07296542
0.06990869 0.086006515 -0.01771355 0.062857784 0.011176702 0.057713132 0.037264664 0.08837017
-0.045415495 0.08284085 0.039808784 -0.07316956 -0.029403074 -0.014239387 0.0333547 -0.066559985
0.05414144 -0.035484444 0.005196548 0.07049244 0.0148387775 0.012659375 -0.044927023 -0.008078255
-0.0571186 0.0110828085 -0.022289129 0.027915785 0.08471374 0.019842125 0.0098927505 -0.08817246
0.018888015 0.034743216 -0.08058851 0.0062326863 -0.07856337 -0.013788215 0.08435355 -0.061311387
0.017768048 0.03852482 0.08684142 0.013753401 -0.055222802 -0.045587536 -0.056829028 0.005491587
0.014849504 -0.049200606 -0.032315485 -0.0555131 0.032176737 0.074254 -0.0795088 0.08193572
-0.07742562 0.08670207 0.08565403 0.050743476 -0.044786714 -0.056039788 0.051844016 -0.046507202
-0.05687483 0.082588606 -0.0034216812 0.01964613 0.081850305 0.08127869 -0.04758947 -0.035409644
0.045118716 0.062016714 0.037982624 -0.05227211 -0.01964078 0.06716705 -0.020913277 0.05019582
-0.066478424 -0.036475725 0.076561116 0.011822507 0.06699621 -0.042708203 -0.03458938 -0.052902795
0.0070521478 -0.037091397 0.010335577 0.076562636 -0.05586909 -0.02444689 -0.0500021 -0.038783267
-0.0013208506 -0.012313444 -0.036262188 0.00041511483 -0.085183755 -0.050169658 0.0017528769 0.017391622
-0.05933194 0.0642635 -0.06450897 0.03929711 -0.065949656 -0.027715588 -0.0342427 0.002368305
0.069441095 0.08595096 -0.06621159 0.003515795 0.030407717 0.012951347 -0.0012844884 -0.035781704
-0.03570307 0.07465995 0.08559854 -0.08754444 -0.009212427 0.010801163 0.03510768 -0.00019647807
0.007829399 -0.0010153808 -0.05361112 0.051787633 0.048349123 -0.010881547 0.012533177 0.08303871
-0.06199169 0.008176015 0.06273341 -0.025638644 -0.0165095 0.03993945 -0.07763088 0.028913349
0.058195062 0.04161861 -0.08718989 0.0150063215 -0.06333662 -0.01859246 0.02738835 0.008121013
00000000: aaec 1dbd 5181 383a 684e 013d ec0f a33d
00000010: 1e0c 9e3b 5875 12bd a767 a83d d261 6ebd
00000020: dae5 44bd d6d2 68bd c111 6e3d b2d4 a2bd
00000030: 2319 8dbd 087e 023d ad69 9c3d 6586 9dbd
00000040: 10d8 0b3d 5421 123d 29d0 4fbd 9a18 abbc
00000050: fbe8 5b3d e008 e93c f49d 45bc b389 63bd
00000060: 9d68 623c 414f 84bc bb55 88ba 4a08 f8bc
00000070: a7bf b0bc 58a7 c13b aded a8bc 19c7 da3a
00000080: 6213 6b3d 2173 ac3d 48b5 ad3d c090 1d3d
00000090: c719 84bd aec5 2d3c 500a 69bd f333 55bd
000000a0: c9e2 87bd b6a1 8e3c 7d97 853d 1507 63bd
000000b0: c613 9cbd 9ac5 40bd e51a 673d 7802 5c3b
000000c0: b7d6 973d 6464 b4bc 410c 97bd 442f 133d
000000d0: 6234 65bd 2394 9c3d 137a b23d 7c9a 7e3d
000000e0: 5d22 823b d091 e0bc bb1e 60bc 94ba 13bd
000000f0: ba70 a3bd c9dd f9bc 2dcc 743c 42e0 293c
00000100: 13c2 a23d d535 363d cb96 283b a59b 9dbc
00000110: f7f6 d53c f8e1 84bd b399 aabd 12e1 2a3d
00000120: 5424 223d c887 9ebd 52f5 5d3d bbeb 8bbb
00000130: b7f8 69bd 0ceb db3b 757f 8bbd 23d0 8fbd
00000140: e036 fb3c edd9 9bbc 6ca5 713d e515 6a3d
00000150: fac4 9d3d bd04 5d3d 4fb1 74bc b33c 7dbc
00000160: 54f0 48bd ac5a 83bd 5ea0 7b3d 5850 0bbd
00000170: d631 293d b823 46bd 11f8 863a e210 973d
00000180: aad9 b1bd c80c 5dbc 4869 3b3d d00d 063d
00000190: 0e2b 1e3d 090a d2bc 8948 8d3c e56e 953d
000001a0: 4a2c 8f3d 2f24 b03d 021c 91bc 95bb 803d
000001b0: 7c1e 373c 9b64 6c3d d5a2 183d 6bfb b43d
000001c0: 9905 3abd 77a8 a93d 890e 233d ecd9 95bd
000001d0: b7de f0bc 514c 69bc f09e 083d 9a50 88bd
000001e0: 6ac3 5d3d 2358 11bd ce47 aa3b 575e 903d
000001f0: 581e 733c 4469 4f3c 6605 38bd a85a 04bc
00000200: 31f5 69bd ab94 353c b197 b6bc a5af e43c
00000210: 667e ad3d f48b a23c 3415 223c c393 b4bd
00000220: 0abb 9a3c e74e 0e3d 970b a5bd 903b cc3b
00000230: d5e5 a0bd f7e7 61bc 8ec1 ac3d a621 7bbd
00000240: 4c8e 913c 34cc 1d3d ead9 b13d f255 613c
00000250: 4e31 62bd ffb9 3abd 8ec5 68bd c5f2 b33b
00000260: 564b 733c 9386 49bd 3e5d 04bd b461 63bd
00000270: c1cb 033d 7b12 983d 82d5 a2bd eacd a73d
00000280: 5391 9ebd db90 b13d 616b af3d 64d8 4f3d
00000290: 4672 37bd fa89 65bd 645a 543d 567e 3ebd
000002a0: 95f5 68bd 3724 a93d 493e 60bb ecf0 a03c
000002b0: 22a1 a73d 7175 a63d 2ded 42bd b409 11bd
000002c0: 67ce 383d 3d05 7e3d ab93 1b3d 481b 56bd
000002d0: b3e5 a0bc e18e 893d 5252 abbc 229a 4d3d
000002e0: d725 88bd 9267 15bd 13cc 9c3d 30b3 413c
000002f0: 4f35 893d ccee 2ebd 98ad 0dbd 9ab0 58bd
00000300: b415 e73b 26ed 17bd 8d56 293c dfcc 9c3d
00000310: fdd6 64bd d844 c8bc 01cf 4cbd 34db 1ebd
00000320: 6420 adba 54be 49bc a987 14bd c5a3 d939
00000330: d274 aebd b37e 4dbd cac0 e53a e078 8e3c
00000340: 0c06 73bd 959c 833d 471d 84bd 02f6 203d
00000350: 9d10 87bd cd0b e3bc 1342 0cbd 9135 1b3b
00000360: 2237 8e3d 0f07 b03d f199 87bd 4169 663b
00000370: 9b19 f93c e331 543c 475c a8ba d68f 12bd
00000380: 623d 12bd 51e7 983d 4a4e af3d 804a b3bd
00000390: b8ef 16bc 5cf7 303c 12cd 0f3d ae05 4eb9
000003a0: e146 003c 8716 85ba 5597 5bbd 451f 543d
000003b0: bb09 463d 8448 32bc f457 4d3c 3310 aa3d
000003c0: 00eb 7dbd b1f4 053c 607a 803d 2208 d2bc
000003d0: ee3e 87bc 8c97 233d f0fc 9ebd b0db ec3c
000003e0: f25d 6e3d 4778 2a3d 9d90 b2bd 13dd 753c
000003f0: a1b6 81bd 374f 98bc 885d e03c ff0d 053c

layer2.bias f4 [128]
-0.013188149 -0.071756095 -0.022441164 -0.03537503 -0.042016793 0.024325894 0.05620174 0.03603978
0.063554436 -0.041319072 0.06640306 0.0024984595 0.0873023 0.06087624 -0.027253859 -0.0062988233
-0.0397993 -0.017601904 0.042925164 -0.03792997 0.039449092 -0.04335916 -0.022331359 0.02004885
-0.040473882 0.041262757 -0.036460966 0.05105719 -0.08724674 -0.00021758572 -0.028218642 -0.02585395
0.0224166 0.07506018 -0.057827465 -0.06803449 0.04315658 0.03412836 -0.058996715 -0.07383402
-0.06432821 -0.07271215 -0.0072171343 -0.08366235 -0.027656699 0.002230896 -0.04221998 0.014073739
0.009627588 0.032399617 0.03261674 -0.018999154 0.07476011 -0.08518188 -0.0026797282 0.020957952
-0.0013185957 0.049470454 -0.04381795 0.034358885 0.0026636282 0.024739936 -0.08354513 0.024341434
0.03506644 0.027079992 0.02336239 -0.025568744 0.03786247 0.067518376 -0.032214563 0.0049119066
0.029173156 -0.078777336 0.02599292 -0.07911495 -0.038918294 -0.04983868 -0.0006069041 -0.0424072
-0.076835044 -0.024716072 -0.052243926 0.05617862 0.033081893 0.01533081 0.01348689 -0.05063676
-0.058029857 -0.04622091 0.056898206 -0.013585952 0.05343443 -0.044439226 -0.03034531 -0.034750067
-0.06485304 -0.08286103 -0.01580434 -0.083664194 -0.05586925 0.089592375 0.047512047 0.057493497
-0.012232311 0.02647412 -0.041526224 -0.005768225 0.07443085 0.032697037 0.014749236 -0.06735042
0.0393445 -0.05750106 0.066704564 -0.074623615 -0.033597074 -0.030507669 -0.06999358 -0.066980824
0.021549473 -0.009056435 -0.02821731 -0.04075214 0.018411461 -0.05288498 -0.040876817 0.014858419
00000000: 1b13 58bc dcf4 92bd 88d6 b7bc 68e5 10bd
00000010: cd19 2cbd 1947 c73c cc33 663d 739e 133d
00000020: d428 823d 303e 29bd 54fe 873d 32bd 233b
00000030: 8ccb b23d 5d59 793d 7c43 dfbc 5c66 cebb
00000040: 9704 23bd de31 90bc 4cd2 2f3d 755c 1bbd
00000050: 5f95 213d 6099 31bd 41f0 b6bc 7c3d a43c
00000060: f1c7 25bd 2303 293d 1858 15bd 5821 513d
00000070: 6bae b2bd b927 64b9 c82a e7bc aacb d3bc
00000080: 04a3 b73c 27b9 993d 7edc 6cbd ab55 8bbd
00000090: f4c4 303d 2eca 0b3d 8aa6 71bd 4a36 97bd
000000a0: 82be 83bd 1cea 94bd b67d ecbb 2b57 abbd
000000b0: 4d90 e2bc 3934 123b dcee 2cbd 8a95 663c
000000c0: 08bd 1d3c 76b5 043d 2199 053d 1da4 9bbc
000000d0: d41b 993d d673 aebd 619e 2fbb 03b0 ab3c
000000e0: bbd4 acba 88a1 4a3d 737a 33bd e7bb 0c3d
000000f0: 4490 2e3b 68ab ca3c b619 abbd b067 c73c
00000100: d4a1 0f3d dcd6 dd3c 7c62 bf3c 8b75 d1bc
00000110: ad15 1b3d 1347 8a3d 6bf3 03bd 0ff4 a03b
00000120: 8bfc ee3c 0356 a1bd 1bef d43c 0507 a2bd
00000130: ca68 1fbd a523 4cbd a518 1fba 2cb3 2dbd
00000140: b15b 9dbd 5c79 cabc bafd 55bd 8d1b 663d
00000150: e180 073d 142e 7b3c 1ef8 5c3c 7e68 4fbd
00000160: b7b0 6dbd 2352 3dbd 180e 693d 9d97 5ebc
00000170: 10de 5a3d e805 36bd ba96 f8bc 1656 0ebd
00000180: acd1 84bd 0bb3 a9bd 1a78 81bc 2258 abbd
00000190: 28d7 64bd 357c b73d fe9b 423d 4d7e 6b3d
000001a0: 086a 48bc 41e0 d83c 6717 2abd 6103 bdbb
000001b0: 346f 983d 54ed 053d c8a6 713c 04ef 89bd
000001c0: b327 213d 3b86 6bbd 679c 883d 44d4 98bd
000001d0: 169d 09bd 38eb f9bc cb58 8fbd 3e2d 89bd
000001e0: 8588 b03c 7161 14bc fd27 e7bc b7eb 26bd
000001f0: a2d3 963c ec9d 58bd 736e 27bd ba70 733c

pi_logits.weight f4 [4, 128]
0.016971165 -0.0592037 0.07384446 0.031707063 0.0056838607 0.09909023 -0.041596647 0.05275072
0.005961089 -0.012271392 -0.023403995 -0.05668649 -0.04474322 0.039381918 -0.07589466 -0.07300472
-0.008285501 -0.02054582 -0.014400269 0.05167349 -0.027047453 -0.009881655 0.06133871 0.027637497
0.08538042 -0.0010232581 0.083917156 -0.0011933527 0.059213992 -0.056042235 0.06838092 -0.00070859387
0.036425203 -0.020191979 0.06746574 -0.06403329 0.096117206 -0.045377724 -0.06179201 -0.08644206
-0.067045584 -0.0002978623 0.0928008 -0.07277862 -0.04691828 -0.08098835 0.08348767 0.014997508
0.07977013 0.064803995 0.061899077 0.071346216 0.026567467 0.06516793 0.05611286 0.019992199
-0.027264586 0.033635978 0.011125904 -0.026771097 0.06806718 -0.037856884 -0.05318754 -0.016166259
0.0020854373 -0.012500344 -0.07036494 0.078058764 0.10890969 -0.016723173 -0.048338115 -0.040589526
0.04476236 -0.0004523305 0.082445584 0.017811343 0.00609671 -0.023062754 0.028872993 -0.04783682
0.053642232 -0.007993173 0.04156381 -0.015564783 0.008114446 -0.0018956042 -0.07014178 -0.037501633
0.084638454 0.05795194 0.032660015 -0.0028733718 0.0749819 0.0010009139 0.08225415 -0.03230422
-0.028287636 0.044786304 -0.00049893046 -0.02988165 0.008358457 -0.021235332 0.060145523 0.073992066
0.042064313 0.06699006 -0.02977956 -0.035276424 0.03428304 0.060757007 -0.08257389 0.054942716
0.09262129 0.04300545 0.03223278 -0.060351294 0.015568561 0.020521384 0.01879723 0.01875383
-0.05809443 0.07227574 -0.06620607 -0.042010177 -0.039941672 0.08380292 -0.033734538 -0.022238087
-0.034815613 -0.046245914 -0.041761246 0.07952085 -0.028590651 -0.049755704 0.035070002 0.033974558
-0.10737679 0.0568071 -0.024933439 -0.035786863 -0.09596499 0.055089697 0.057526242 0.060773164
-0.0064229476 -0.02205298 -0.057321906 -0.03214182 0.051602136 0.003195163 -0.07475242 -0.058210738
0.073846124 0.010943222 0.081338696 -0.059102017 -0.08187519 -0.047433667 -0.0768623 -0.024227884
0.006688101 -0.032044828 -0.055842772 0.01416603 0.044627078 0.030355763 0.07429431 0.08160187
0.083125815 0.046893194 -0.02458271 -0.015479442 0.07093992 0.07432392 -0.058573633 0.07374846
0.03048679 0.040557567 -0.023728186 -0.036260493 -0.0039559496 0.029100724 0.029171983 0.029073555
0.07844875 -0.040065516 -0.07911087 -0.06897274 -0.06546071 -0.078516684 0.03041503 -0.037320334
-0.06715406 -0.06694036 -0.08676298 0.033649486 0.05208133 -0.041993164 -0.012964349 -0.06318744
-0.09315492 0.016518613 -0.014725013 0.08057834 -0.06768795 -0.07837931 0.03586112 0.06556806
0.08799554 0.06408316 -0.02158438 -0.039237883 0.043285742 -0.06231133 -0.03404273 0.07378149
0.041489366 0.018357566 -0.10059857 -0.015456914 0.040515482 0.011502349 0.084959395 -0.015319525
0.06239944 -0.0096748825 0.06639573 -0.079114035 0.018084874 -0.097975515 -0.007769252 0.028503992
-0.0535931 0.057447787 0.0013617225 -0.06954679 -0.03469268 0.05447243 -0.060858164 -0.0023687056
0.04751309 0.043582022 -0.053736143 0.02291955 0.029952448 0.01925563 -0.036500044 -0.08796907
-0.037794266 -0.1021067 -0.03492073 -0.018351883 -0.081613734 0.007753555 0.016751274 -0.030027697
00000000: 1d07 8b3c 947f 72bd c43b 973d 44df 013d
00000010: ae3f ba3b d2ef ca3d 3f61 2abd 2411 583d
00000020: 3d55 c33b f30d 49bc bcb9 bfbc 1830 68bd
00000030: ab44 37bd ef4e 213d a96e 9bbd 8083 95bd
00000040: e9bf 07bc b54f a8bc 1bef 6bbc 95a7 533d
00000050: 9f92 ddbc aae6 21bc 4d3e 7b3d 0868 e23c
00000060: eedb ae3d d81e 86ba c2dc ab3d 466a 9cba
00000070: 5f8a 723d 8b8c 65bd 4c0b 8c3d eec0 39ba
00000080: 9832 153d a669 a5bc 7a2b 8a3d e323 83bd
00000090: 19d9 c43d fedd 39bd 9e19 7dbd 8908 b1bd
000000a0: 324f 89bd 672a 9cb9 590e be3d f50c 95bd
000000b0: 622d 40bd 38dd a5bd 95fb aa3d 1cb8 753c
000000c0: 865e a33d f5b7 843d e389 7d3d f71d 923d
000000d0: 04a4 d93c c476 853d 99d6 653d aec6 a33c
000000e0: fb59 dfbc e1c5 093d 6c49 363c 0f4f dbbc
000000f0: ce66 8b3d d20f 1bbd 2edb 59bd 1a6f 84bc
00000100: d5ab 083b 3ece 4cbc 7e1b 90bd 46dd 9f3d
00000110: 0b0c df3d 09ff 88bc 30fe 45bd 3441 26bd
00000120: bd58 373d c626 edb9 3bd9 a83d 18e9 913c
00000130: e9c6 c73b 1aee bcbc 0e87 ec3c 8bf0 43bd
00000140: f5b7 5b3d ccf5 02bc d03e 2a3d 6e03 7fbc
00000150: 74f2 043c ec75 f8ba 7ea6 8fbd 509b 19bd
00000160: ed56 ad3d 035f 6d3d 82c6 053d 2e4f 3cbb
00000170: 1c90 993d 1931 833a dd74 a83d 6e51 04bd
00000180: 79bb e7bc d871 373d a8ca 02ba 5dca f4bc
00000190: e9f1 083c b8f5 adbc 275b 763d 2789 973d
000001a0: a14b 2c3d 1632 893d 44f4 f3bc 037e 10bd
000001b0: 5f6c 0c3d 57dc 783d 801c a9bd 9d0b 613d
000001c0: 3bb0 bd3d 7c26 303d 8506 043d eb32 77bd
000001d0: 4713 7f3c 761c a83c a6fc 993c a2a1 993c
000001e0: 6df4 6dbd 4e05 943d 0c97 87bd dd12 2cbd
000001f0: e199 23bd dea0 ab3d 3a2d 0abd a62c b6bc
00000200: d19a 0ebd 5b6c 3dbd d70d 2bbd d4db a23d
00000210: f136 eabc a3cc 4bbd 90a5 0f3d e828 0b3d
00000220: 5de8 dbbd 90ae 683d 3641 ccbc 3f95 12bd
00000230: 4b89 c4bd bca5 613d a3a0 6b3d 48ed 783d
00000240: 9777 d2bb 73a8 b4bc 60ca 6abd 24a7 03bd
00000250: c35c 533d f165 513b cc17 99bd 626e 6ebd
00000260: a33c 973d 334b 333c e794 a63d f514 72bd
00000270: 2eae a7bd ce49 42bd fb69 9dbd 8e79 c6bc
00000280: dc27 db3b 7041 03bd 64bb 64bd a318 683c
00000290: e2ca 363d a6ac f83c 9d27 983d e21e a73d
000002a0: de3d aa3d 1413 403d ae61 c9bc 7c9d 7dbc
000002b0: f348 913d 2437 983d e8ea 6fbd 6f09 973d
000002c0: 6fbf f93c b11f 263d 9d61 c2bc e285 14bd
000002d0: e9a0 81bb a464 ee3c 15fa ee3c aa2b ee3c
000002e0: bda9 a03d bd1b 24bd e104 a2bd 9441 8dbd
000002f0: 4410 86bd 5bcd a0bd f128 f93c 35dd 18bd
00000300: 1188 89bd 0718 89bd cab0 b1bd 0bd4 093d
00000310: 3c53 553d 0601 2cbd 6c68 54bc 6b68 81bd
00000320: 02c8 bebd 0b52 873c 2e41 71bc 4206 a53d
00000330: fb9f 8abd 5585 a0bd 1ce3 123d 8c48 863d
00000340: 0137 b43d 083e 833d bad1 b0bc e7b7 20bd
00000350: 644c 313d 2a3a 7fbd 6470 0bbd c01a 973d
00000360: c1f0 293d 9b62 963c a006 cebd ff3e 7dbc
00000370: 90f3 253d 5974 3c3c 31ff ad3d bffe 7abc
00000380: 8e96 7f3d 6683 1ebc 7cfa 873d 8a06 a2bd
00000390: bb26 943c 63a7 c8bd 3695 febb 3481 e93c
000003a0: 7084 5bbd 5f4e 6b3d d37b b23a 8c6e 8ebd
000003b0: e919 0ebd 7c1e 5f3d 6946 79bd 493c 1bbb
000003c0: 169d 423d 1083 323d 6e1a 5cbd c8c1 bb3c
000003d0: d65e f53c fcbd 9d3c 1281 15bd 2129 b4bd
000003e0: 29ce 1abd 511d d1bd 0a09 0fbd b056 96bc
000003f0: 1a25 a7bd 8911 fe3b f839 893c a5fc f5bc

pi_logits.bias f4 [4]
-0.027727816 0.056833524 0.020618385 0.0636637
00000000: 7225 e3bc 45ca 683d e3e7 a83c 1d62 823d

value.weight f4 [1, 128]
-0.07091581 0.06895609 0.062822364 -0.03782201 0.07599671 0.022983478 0.057523225 0.039051756
-0.052249502 0.00903502 -0.05817096 0.07196738 0.02098132 0.045881037 -0.030489167 -0.07419072
0.016886113 0.071251914 -0.029643971 0.004497564 0.043026686 -0.06660628 0.06627915 0.04832828
-0.060652528 0.08417437 0.025283704 0.02781777 -0.0045042443 -0.015796335 0.02470015 -0.07791474
0.014902148 -0.008681056 -0.019521344 -0.031205652 0.021140913 -0.006040731 -0.00809151 -0.07129783
0.047064878 -0.03020181 0.003549486 -0.074058 0.083294764 0.08225433 -0.0444326 -0.057205312
0.05249129 -0.031878296 -0.0042706053 -0.037475124 0.034853168 0.016892772 -0.034362324 0.076485835
-0.0157625 -0.051174335 -0.013608637 -0.031890366 -0.07622581 0.0020804286 -0.078769654 -0.0043948977
-0.026145801 0.057200763 -0.07577401 -0.031083079 -0.022479376 0.0840665 -0.016756712 0.0670082
-0.03029096 0.0792443 0.072702505 -0.002864795 0.055048555 -0.043746427 -0.0056530302 -0.009495042
0.088024534 0.010452323 0.08648658 -0.00481193 0.014395982 0.059457514 -0.0796742 0.024137478
-0.072300546 -0.013312261 0.08070965 -0.042618282 0.037851855 -0.062002756 0.012047286 -0.064324245
0.012310704 -0.033179075 0.013303005 -0.08068093 -0.049648978 0.010703505 0.05821437 -0.06780082
-0.070544444 0.029810855 -0.013037611 0.06298479 0.03193366 0.08385833 0.0785233 0.08826517
0.057920266 -0.0025976577 -0.029014438 0.08825823 0.067904964 -0.05029022 0.07045182 -0.0030345414
0.0004695347 0.015581261 -0.0057337787 0.014776305 0.019193875 -0.023497237 -0.08395494 0.018838337
00000000: 4f3c 91bd da38 8d3d 03a9 803d 41eb 1abd
00000010: 2aa4 9b3d d947 bc3c 799d 6b3d bcf4 1f3d
00000020: 9303 56bd 9f07 143c ac44 6ebd a263 933d
00000030: 04e1 ab3c c1ed 3b3d 6bc4 f9bc 4ef1 97bd
00000040: bf54 8a3c 86ec 913d ead7 f2bc 4d60 933b
00000050: c03c 303d e068 88bd 5dbd 873d e0f3 453d
00000060: c96e 78bd 9d63 ac3d c51f cf3c 18e2 e33c
00000070: 5798 93bb 5167 81bc f857 ca3c c391 9fbd
00000080: 2428 743c fd3a 0ebc 3aeb 9fbc ffa2 ffbc
00000090: b52f ad3c 53f1 c5bb 4192 04bc 9904 92bd
000000a0: 1ac7 403d c969 f7bc 7e9e 683b b9ab 97bd
000000b0: 7296 aa3d f574 a83d f5fe 35bd 1e50 6abd
000000c0: 1b01 573d d192 02bd 6ff0 8bbb 847f 19bd
000000d0: 32c2 0e3d b662 8a3c 82bf 0cbd 9ba4 9c3d
000000e0: 5c20 81bc 2e9c 51bd c3f6 5ebc 799f 02bd
000000f0: 471c 9cbd cd57 083b fc51 a1bd 1303 90bb
00000100: b82f d6bc 594b 6a3d 672f 9bbd f1a1 febc
00000110: ab26 b8bc 0f2b ac3d 5f45 89bc 983b 893d
00000120: bf24 f8bc d64a a23d 0de5 943d 49bf 3bbb
00000130: 987a 613d 742f 33bd 0e3d b9bb 1891 1bbc
00000140: 3546 b43d 3840 2b3c e01f b13d 65ad 9dbb
00000150: 20dd 6b3c b989 733d 3a2c a3bd f6bb c53c
00000160: 4f12 94bd ab1b 5abc 1a4b a53d 8290 2ebd
00000170: 8c0a 1b3d 9af6 7dbd fb61 453c 6ebc 83bd
00000180: d6b2 493c c8e6 07bd d9f4 593c 0b3c a5bd
00000190: ba5c 4bbd c15d 2f3c 3172 6e3d 28db 8abd
000001a0: 9b79 90bd e535 f43c b49b 55bc 2bfe 803d
000001b0: dfcc 023d ebbd ab3d d3d0 a03d 5fc4 b43d
000001c0: cd3d 6d3d 773d 2abb b0af edbc bbc0 b43d
000001d0: c211 8b3d 1efd 4dbd 0b49 903d 28df 46bb
000001e0: e12b f639 8c48 7f3c 6ce2 bbbb 5118 723c
000001f0: 793c 9d3c 477d c0bc 91f0 abbd db52 9a3c
